pose_model.pth (torch, 89977 bytes, 6 tensors)

fc1.weight f4 [128, 99]
0	0xbdc6fda7	-0.09716349
1	0xbcf4f4f0	-0.029901952
2	0x3c86ceb0	0.016455978
3	0xbdf199c4	-0.117969066
4	0x3d872dbb	0.06600519
5	0xbd35f52b	-0.044423264
6	0xbd4422bc	-0.047884688
7	0xbd56784b	-0.052360814
8	0xbd2b857f	-0.04187536
9	0xbd6c6463	-0.057712924
10	0x3b97342f	0.004614375
11	0xbd19c342	-0.037539728
12	0x3d9d08d5	0.076677
13	0x3cee9f8e	0.029128816
14	0xba088eb1	-0.0005209251
15	0x3bab491f	0.0052272226
16	0xbdd2b3ba	-0.10288186
17	0xbd2a0347	-0.04150703
18	0x3d5471d8	0.051866382
19	0x3d559927	0.05214801
20	0xbd82ded1	-0.06390155
21	0xbd55b657	-0.052175846
22	0x3d136cc9	0.035992417
23	0xbd664255	-0.056215603
24	0xbdb8a8a2	-0.09016539
25	0xbca56a65	-0.020192334
26	0xbdfd9fe7	-0.123840146
27	0x3d4eda81	0.05050135
28	0x3c281709	0.010259398
29	0x3d1a13b2	0.03761644
30	0xbda8c5c2	-0.08240844
31	0xbd84bfbb	-0.06481882
32	0xbdded0b4	-0.10879651
33	0xbda09366	-0.07840614
34	0x3d8e2fb3	0.06942692
35	0x3e008cac	0.12553662
36	0x3a927a75	0.0011175411
37	0x3d39178f	0.045188483
38	0xbd8a0e48	-0.06741005
39	0xbde51e58	-0.11187428
40	0xbd708115	-0.058716852
41	0x3d8bad71	0.06820191
42	0x3bb5f5aa	0.005552967
43	0xbc7ec49d	-0.015549806
44	0x3d9946af	0.07484185
45	0xbd8c6c33	-0.06856575
46	0xbd90dbf5	-0.070732035
47	0x3cb6a8af	0.022297231
48	0xbda2020c	-0.07910547
49	0xbd0a88a5	-0.03382172
50	0x3d10b0c6	0.035324834
51	0xbd609699	-0.05483112
52	0xbddacf82	-0.1068411
53	0x3e4fac28	0.20280516
54	0xbdbf61f1	-0.09344853
55	0x3d4c792e	0.049920253
56	0x3d9c6066	0.07635574
57	0x3d2f5f4f	0.042815503
58	0xbc82c72b	-0.015964111
59	0x3d9b5e64	0.07586363
60	0x3d5cdca2	0.05392135
61	0x3bb251ee	0.0054418957
62	0x3d28cfe6	0.041213892
63	0x3abeab5d	0.001454692
64	0x3d847635	0.06467859
65	0x3e328154	0.17432147
66	0x3d6363e5	0.05551519
67	0x3b81efd2	0.0039653564
68	0xbbb4d607	-0.005518678
69	0x3d58d5f3	0.052938413
70	0xbd5c9dcb	-0.05386142
71	0x3da80b2d	0.082052566
72	0x3d4dc901	0.05024052
73	0x3d8423a8	0.064521134
74	0xbdab1738	-0.08354038
75	0x3d91d18f	0.07120048
76	0xbd62e2e2	-0.055392154
77	0x3d9789c1	0.07399321
78	0x3cf14278	0.02945064
79	0xbabe1348	-0.0014501596
80	0xbd371019	-0.044693086
81	0xbdbe69ed	-0.092975475
82	0xbd4cb540	-0.04997754
83	0x3c874606	0.016512882
84	0xbdb1859a	-0.086680606
85	0xbd696760	-0.05698335
86	0x3dd84923	0.10560825
87	0x3c9c68dc	0.01909297
88	0x3d8ebf55	0.069700874
89	0x3db92095	0.09039418
90	0x3d931426	0.071815774
91	0x3d583b24	0.052790776
92	0xbd72510b	-0.05915932
93	0x3c2952e5	0.010334705
94	0x3d24b93b	0.040215712
95	0x3d779c59	0.06045184
96	0x3d22c833	0.039741706
97	0xbd93da3a	-0.07219358
98	0x3d4d67b1	0.050147716
99	0x3d9b6be4	0.07588938
100	0xbc622699	-0.013803148
101	0xbcbe2424	-0.023210593
102	0x3d92db81	0.07170773
103	0x3d9aad2f	0.075525634
104	0x3c8bf18d	0.017082954
105	0xbdbe95d5	-0.09305922
106	0x3d92bfb6	0.07165472
107	0x3bd51f48	0.006503973
108	0xbcb6933c	-0.022287004
109	0xbca7507a	-0.020424116
110	0x3d80be55	0.06286303
111	0xbd046c71	-0.03232998
112	0xbd1410f0	-0.036148965
113	0xbd128ad2	-0.03577692
114	0xbd888137	-0.06665271
115	0xbd166e1f	-0.036726113
116	0xbd8470c5	-0.064668216
117	0xbda5f858	-0.081040084
118	0xbdbd5a95	-0.09245793
119	0xbd7747b6	-0.060371123
120	0x3d74419c	0.059632882
121	0xbd80a6ca	-0.062818125
122	0xbc9261ca	-0.017868895
123	0xbd1aed27	-0.037823822
124	0xbdc0ac10	-0.09407818
125	0x3c1f0be4	0.009707425
126	0xbcfb6b86	-0.03069092
127	0x3d3d6218	0.046236128
128	0xbd8c250f	-0.06843006
129	0x3d96a558	0.073557556
130	0x3c9e9147	0.019356383
131	0xbce4570f	-0.027873544
132	0x3a062e95	0.00051186356
133	0xbd78c317	-0.060732927
134	0x3d5973e7	0.05308905
135	0x3dba0af2	0.09084119
136	0xbd4c9938	-0.04995081
137	0x3d64ad2e	0.05582922
138	0x3d339514	0.043843344
139	0xbce8b868	-0.028408244
140	0xbc8b3dc7	-0.016997231
141	0xbd94f724	-0.07273701
142	0x3d4833d1	0.04887754
143	0x3dae02f5	0.08496658
144	0xbd1ddac9	-0.038538728
145	0x3dbc2b4b	0.09187945
146	0x3d54c3df	0.05194461
147	0x3d6c0277	0.05761954
148	0xbd696b33	-0.056987
149	0x3d97113c	0.07376334
150	0xbd4590b8	-0.048233718
151	0x3be7bffc	0.007072447
152	0x3db7d2ff	0.08975791
153	0xbd55fbe0	-0.05224216
154	0x3dc0bd87	0.094111495
155	0xbd947809	-0.072494574
156	0xbc951d58	-0.018202469
157	0xbd193b2e	-0.037409954
158	0x3daf9558	0.08573407
159	0x3cbc437b	0.022981396
160	0x3dbb2cc1	0.091393955
161	0xbd68b902	-0.056817062
162	0x3dbd578c	0.09245214
163	0x3d18e2fc	0.037325844
164	0xbbe6fcce	-0.0070491796
165	0xbdc32035	-0.095276274
166	0x3d87dd46	0.066340014
167	0x3b409d2a	0.0029390552
168	0xbd2b6cbd	-0.041851748
169	0xbd85b0b7	-0.06527846
170	0x3d290a23	0.041269433
171	0x3da9669f	0.082715265
172	0x3da31434	0.07962838
173	0xbd9bb37b	-0.076025926
174	0x3daa8a3a	0.08327146
175	0xbd6feb31	-0.058573905
176	0x3d901e9c	0.07037088
177	0xbccfd396	-0.025369447
178	0xbc4b9658	-0.012425981
179	0x3da398fd	0.079881646
180	0xbd8b97c7	-0.068160586
181	0xbd938a9c	-0.07204172
182	0x3d886780	0.06660366
183	0xbd9f78eb	-0.07786735
184	0xbd0fc22c	-0.035097286
185	0xbdb404bc	-0.087899655
186	0xbcc18d04	-0.023626812
187	0x3db197da	0.086715415
188	0x3cc24d01	0.023718359
189	0xbcc7b54b	-0.02437844
190	0xbd92b158	-0.07162732
191	0xbd89f249	-0.06735665
192	0x3c60905d	0.013706294
193	0xbdb90692	-0.09034456
194	0xbdbb4dcb	-0.09145697
195	0x3d056182	0.032563694
196	0x3c5ed037	0.013599447
197	0x3d8f849d	0.07007716
198	0x3d39e359	0.04538283
199	0xbc1b42c6	-0.009476369
200	0xbdbb38ec	-0.09141716
201	0xbd61e1e9	-0.055147085
202	0xbd86a7b7	-0.06574958
203	0xbd7f7ffe	-0.062377922
204	0xbdca8d8b	-0.098902784
205	0xbc4a7299	-0.012356424
206	0x399eca71	0.0003028694
207	0x3d74f3f9	0.059802983
208	0xbc27e3c4	-0.010247175
209	0xbd1747cc	-0.036933705
210	0xbd8e00a3	-0.06933715
211	0xbcd12ba3	-0.025533503
212	0xbcef56ef	-0.029216258
213	0xbca8b726	-0.020595144
214	0xbce007cd	-0.02734747
215	0x3cec272f	0.028827278
216	0xbda88ccf	-0.08229982
217	0xbd231945	-0.03981902
218	0xbbdcafaa	-0.006734808
219	0x3d14a56e	0.03629058
220	0x3d544c9e	0.05183088
221	0xbdc682f8	-0.09692949
222	0xbda5c505	-0.08094219
223	0x3daeed77	0.085413866
224	0xbdd97b0c	-0.106191725
225	0xbd8d2075	-0.06890956
226	0xbd623bd7	-0.05523285
227	0x3da181e8	0.07886106
228	0x3b7c8523	0.0038531504
229	0xbd216c9d	-0.039410222
230	0xbc2a031e	-0.01037672
231	0xbcf7f09e	-0.030266102
232	0x3d1b9919	0.037987802
233	0xbd74e84a	-0.05979184
234	0x3d623093	0.055222105
235	0x3d126bc0	0.03574729
236	0xbac64ca9	-0.0015129048
237	0xbdca90ed	-0.09890924
238	0x3bb0d4df	0.00539647
239	0x3c853cbd	0.016264314
240	0xbd801c91	-0.062554486
241	0x3d91279a	0.070876315
242	0xbd05de03	-0.03268243
243	0x3ccc2c7a	0.024923552
244	0xbd7824d8	-0.060582012
245	0xba593c1e	-0.0008286851
246	0xbc8cd6e6	-0.017192315
247	0x3d14d31f	0.036334153
248	0xbd7d3091	-0.061813895
249	0x3d940bc8	0.072288096
250	0xbdbbc7ef	-0.09168994
251	0xbd7ca8e6	-0.06168451
252	0x3d070542	0.032964
253	0x3d6eb898	0.05828151
254	0x3d01fad8	0.031733364
255	0xbd4e46a9	-0.050360356

fc1.bias f4 [128]
0	0xbd79b671	-0.060965005
1	0xbcfbb9f1	-0.030728312
2	0xbd9162f2	-0.070989504
3	0x3c2a7e29	0.0104060555
4	0x3d440469	0.04785577
5	0x3c1e2f84	0.009654883
6	0xbc9bad0a	-0.01900341
7	0x3d29a3d6	0.04141601
8	0xbdeb0d11	-0.114771016
9	0xbc2b08d0	-0.010439113
10	0x3dbae864	0.09126356
11	0x3d0dca1c	0.034616575
12	0x3cf17cd4	0.029478468
13	0xbd2e4299	-0.04254398
14	0xbd7477e8	-0.059684664
15	0xbd8c559b	-0.068522654
16	0x3dacff8c	0.08447179
17	0xbcc2d93f	-0.023785232
18	0xbdc3c09c	-0.09558222
19	0x3d430b8f	0.047618445
20	0xbd6be642	-0.057592638
21	0xbd1c3c3a	-0.038143374
22	0x3c7daf07	0.015483624
23	0xbdd75490	-0.10514176
24	0x3db8d67a	0.09025283
25	0xbd46ba54	-0.04851754
26	0xbd327553	-0.04356892
27	0x3c0b0ef0	0.008487448
28	0xbd132566	-0.035924338
29	0xbdd67a45	-0.1047254
30	0x3cd2528a	0.025674123
31	0xbdce0959	-0.10060377
32	0xbc21c3c7	-0.009873337
33	0x3d890bed	0.06691728
34	0x3d60711e	0.054795377
35	0x3d0ad1aa	0.033891357
36	0x3d90a5ed	0.07062898
37	0xbd2c6bbe	-0.04209494
38	0xbd3497b0	-0.044089973
39	0xbd703887	-0.05864766
40	0x3c200bd3	0.009768444
41	0xbdd760b3	-0.10516491
42	0xbd542253	-0.051790547
43	0x3d8c2c7f	0.068444245
44	0x3d92c6b2	0.071668044
45	0xbca0dbad	-0.019636
46	0x3dc91a8c	0.098195165
47	0xbd6e1eee	-0.058134966
48	0x3d8cc805	0.06874088
49	0xbd4a2bb4	-0.049358085
50	0x3cbedf3f	0.023299811
51	0xbdd7c5b3	-0.10535755
52	0xbdb016c9	-0.08598096
53	0xbd329370	-0.04359764
54	0x3d7f67ab	0.062354725
55	0xbdbadfa1	-0.09124685
56	0xbb3a0aba	-0.0028387741
57	0xbd6a90f1	-0.057267133
58	0x3cf1d7b4	0.0295218
59	0xbda337aa	-0.079696015
60	0x3c910132	0.017700765
61	0x3d841f79	0.064513154
62	0xbc6ea697	-0.014566085
63	0x3d434cbc	0.0476806
64	0x3c29a4d5	0.01035424
65	0x3d2d380f	0.04228979
66	0x3d7f9872	0.062401243
67	0x3cfd0bf3	0.030889487
68	0x3d6b6315	0.05746754
69	0xbd7a0df6	-0.06104847
70	0xbd50863e	-0.050909273
71	0xbda993e4	-0.08280161
72	0xbd19ed89	-0.037580047
73	0xbdc2fc87	-0.09520822
74	0x3d671700	0.05641842
75	0x3d8fba77	0.07017987
76	0xbd454939	-0.048165534
77	0xbdc5a571	-0.09650696
78	0x3ccccc72	0.02499983
79	0xbdae2112	-0.085024014
80	0xbdc0e7a9	-0.09419186
81	0xbc9a0e8a	-0.01880576
82	0x3daf22c5	0.08551554
83	0xbd13e398	-0.036105722
84	0xbce8a8b5	-0.028400758
85	0xbd24f756	-0.04027494
86	0x3c25d31c	0.010121133
87	0xbd39737a	-0.045276143
88	0x3da49180	0.080355644
89	0x3ae621f4	0.0017557726
90	0xbd09a721	-0.033606652
91	0xbd921ed3	-0.071347855
92	0xbc8418aa	-0.016125042
93	0xbcce30cb	-0.02516975
94	0xbdbab3a7	-0.09116297
95	0xbb00df92	-0.0019664508
96	0x3d8337fd	0.06407163
97	0xbb5ecd06	-0.0033996715
98	0x3c208575	0.009797444
99	0xbda22017	-0.07916277
100	0x3d2f3e3a	0.042783953
101	0xbd801ac5	-0.06255106
102	0xbd86535b	-0.065588675
103	0x3d9d3cf1	0.07677639
104	0xbdbeaf2f	-0.09310757
105	0xbd7ba3bf	-0.061435457
106	0x3d7f882f	0.062385734
107	0xbdb0b1fb	-0.08627697
108	0xbd036799	-0.03208122
109	0xbd152731	-0.03641433
110	0xbc68ecd7	-0.014216623
111	0xbdede177	-0.1161527
112	0x3cd9aabe	0.026570674
113	0xbccf2a36	-0.025288682
114	0x3d447208	0.04796031
115	0xbcd488f1	-0.025944205
116	0x3d3f9793	0.04677541
117	0x3d89731a	0.06711407
118	0xbd4b7e4b	-0.04968099
119	0x3d3129dd	0.043252815
120	0x3cc95155	0.024574915
121	0x3c238f5e	0.009982912
122	0x3d8418c5	0.06450037
123	0xbbe4c75f	-0.0069817747
124	0xbdbeac11	-0.09310163
125	0xbcf17be9	-0.02947803
126	0xbda59f01	-0.08086968
127	0xbd507285	-0.050890464

fc2.weight f4 [64, 128]
0	0xbd204bab	-0.039134663
1	0xbda51311	-0.08060277
2	0xbdf77b66	-0.12084083
3	0x3cf0d473	0.029398179
4	0x3bf01a05	0.0073273205
5	0x3d26948b	0.040669005
6	0xbdb71f7f	-0.08941554
7	0xbd362357	-0.044467296
8	0xbd5979fa	-0.05309484
9	0xbd5d703d	-0.054062117
10	0x3d1d6733	0.038428497
11	0x3d07e271	0.033174936
12	0x3d9fc829	0.078018494
13	0xbd97dcd6	-0.07415168
14	0xbd026677	-0.031836
15	0x3d1e6a5d	0.038675655
16	0xbdbe5e90	-0.0929538
17	0x3d9d3175	0.07675449
18	0xbc9dcee9	-0.019263702
19	0x3d5a3990	0.053277552
20	0x3c8ebd00	0.017424107
21	0x3da010b4	0.07815686
22	0x3d570973	0.052499246
23	0x3d44285d	0.047890056
24	0x3dc21fec	0.09478745
25	0xbd6f8f1f	-0.0584861
26	0x3a2ca71f	0.0006586182
27	0x3d6bd682	0.057577617
28	0xbd65dec9	-0.056120668
29	0x3b799d90	0.00380883
30	0x3c607693	0.013700145
31	0xbd69d03a	-0.057083346
32	0xb92e4a70	-0.00016621663
33	0x3d0c8d4e	0.034314446
34	0xbd2291b4	-0.039689735
35	0xbc1450a1	-0.009052427
36	0xbd34765b	-0.044058185
37	0xba7658e5	-0.00093974016
38	0xbda60a7e	-0.0810747
39	0xbdb38a1b	-0.08766576
40	0x3da6af6b	0.08138927
41	0xbd0ddd4b	-0.03463487
42	0xbd70c835	-0.058784682
43	0xbde8d7a2	-0.11369254
44	0xbd4a601f	-0.049408074
45	0x3da5bb08	0.08092314
46	0x3b8fcecf	0.004388667
47	0xbdebb0e1	-0.11508346
48	0x3c935cbe	0.017988559
49	0xbd0e14d2	-0.034687825
50	0xbcb88ef0	-0.022529095
51	0xbdc9836f	-0.09839522
52	0x3dac259f	0.08405613
53	0xbd663907	-0.05620673
54	0x3b35b000	0.0027723312
55	0x3d092e86	0.033491634
56	0xbcbbe82f	-0.022937862
57	0xbdbab4f6	-0.09116547
58	0xbcea61b2	-0.028611038
59	0xbda4e94d	-0.08052311
60	0x3cd5795e	0.026058849
61	0xbc21d48d	-0.009877336
62	0x3d955431	0.07291449
63	0x3d4c1365	0.049823184
64	0x3d725d39	0.059170935
65	0xbd7d8af0	-0.06190008
66	0x3d02f172	0.03196854
67	0xbd9461f5	-0.07245246
68	0x39dc8525	0.0004206087
69	0xbd16fbc1	-0.036861185
70	0x3d49b073	0.04924054
71	0x3d953aef	0.07286631
72	0xbd7fdf5b	-0.062468868
73	0xbd814eca	-0.06313856
74	0xbb8c16dd	-0.0042751865
75	0xbc94a8ab	-0.018146833
76	0xbd46c57e	-0.048528187
77	0xbdc5c618	-0.09656924
78	0xbdb16439	-0.08661694
79	0xbda1c79c	-0.078994006
80	0xbd98faaf	-0.07469689
81	0xbd98521c	-0.07437536
82	0xbd511b1e	-0.05105125
83	0xbba70f96	-0.0050982935
84	0xbd822114	-0.063539654
85	0xbd91f305	-0.071264304
86	0xbd6d4150	-0.057923615
87	0x3d241b78	0.04006526
88	0xbd9b53a0	-0.075843096
89	0x3cfacd57	0.030615492
90	0x3af2abf1	0.0018514377
91	0xbd9f91fe	-0.07791518
92	0xbddc35fc	-0.10752484
93	0xbdbea882	-0.09309484
94	0xbd109b86	-0.03530457
95	0x3c4b09d4	0.01239248
96	0xbcada9f2	-0.0211992
97	0x3d375b71	0.04476494
98	0x3ad89b0a	0.0016525697
99	0xbd3c2700	-0.04593563
100	0xbd35274d	-0.044226933
101	0xbbf0d597	-0.0073496806
102	0x3d486b78	0.048930615
103	0xbd77e215	-0.060518343
104	0x3cb2a372	0.021806452
105	0xbcbe2d8c	-0.023215078
106	0xbd948b0c	-0.072530836
107	0xbc958534	-0.018251993
108	0xbd5b757b	-0.053578835
109	0xbddd8e7f	-0.108181946
110	0x3ce3d46d	0.027811253
111	0xbe292aa5	-0.16520174
112	0xbc9a756c	-0.01885482
113	0xbd1c0706	-0.038092636
114	0xbd59001c	-0.05297862
115	0x3d7b3c1d	0.061336625
116	0xbd609c25	-0.05483641
117	0xbcc0cbcf	-0.023534684
118	0xbd4bd6b8	-0.04976532
119	0x3da0b417	0.078468494
120	0xbd619fc2	-0.055083998
121	0xbd9a8564	-0.075449735
122	0x3d6a2c53	0.057171177
123	0x3bfbd330	0.0076850876
124	0x3c5560cb	0.0130235655
125	0xbcc7fb11	-0.02441171
126	0x3cb863c1	0.022508504
127	0x3d3aa02b	0.045562904
128	0xbdb32f3b	-0.08749243
129	0x3cfc6c69	0.030813413
130	0xbde48415	-0.11158005
131	0x3d16cd18	0.036816686
132	0xbd4707dd	-0.048591483
133	0xbda88fb0	-0.08230531
134	0x3c58eaf3	0.01323961
135	0x3d090fee	0.033462457
136	0xbc97f2af	-0.018548338
137	0xbcc7bef6	-0.02438305
138	0xbad500e4	-0.0016250876
139	0x3cba1847	0.022716654
140	0xbd90c498	-0.07068747
141	0xbc850f03	-0.01624251
142	0xbd8ac289	-0.06775386
143	0xbd990650	-0.07471907
144	0xbd58d3ca	-0.052936353
145	0x3d9eba39	0.07750363
146	0xbda8438d	-0.08216009
147	0xbcea40eb	-0.028595408
148	0xbcd2528e	-0.02567413
149	0x3d4a719b	0.04942475
150	0x3aff3e64	0.001947355
151	0x3cb13581	0.021631958
152	0xbcf35e83	-0.029708153
153	0xbcd7e896	-0.026356023
154	0x3d84fc12	0.06493391
155	0x3d80c38c	0.062872976
156	0xbd7ee767	-0.0622324
157	0x3c93ef35	0.018058399
158	0x3c94bbf4	0.01815603
159	0xbda74c19	-0.08168811
160	0x3c955226	0.018227648
161	0xbcebb2a1	-0.0287717
162	0x3d914dd1	0.070949204
163	0xbd2459cb	-0.040124696
164	0xbd6cc6dc	-0.057806835
165	0x3d985561	0.0743816
166	0x3d35b866	0.04436531
167	0x3d1aaef4	0.037764505
168	0x3d1ec7fd	0.038764942
169	0x3d143349	0.03618172
170	0x3d9c26fa	0.07624622
171	0xbd822ae8	-0.0635584
172	0x3b316704	0.0027069459
173	0x3d25443e	0.040348284
174	0x3d120afd	0.03565501
175	0xbd2f5618	-0.042806715
176	0xbd4fc053	-0.050720524
177	0x3dabda25	0.08391217
178	0xbda015bb	-0.07816645
179	0x3bacc097	0.005271982
180	0xbc9f9671	-0.019480916
181	0xbda0f7e6	-0.07859783
182	0xbcfec3d3	-0.031099236
183	0xbcad04ba	-0.021120418
184	0x3d64078e	0.055671267
185	0xbd3a5862	-0.045494445
186	0xbdd2a4d5	-0.102853455
187	0xbd9ef10c	-0.0776082
188	0xbd42563b	-0.047445517
189	0xbd16242c	-0.03665559
190	0x3d8d88a2	0.06910826
191	0xbce4111c	-0.02784019
192	0x3d81466b	0.06312259
193	0x3c1d27ce	0.00959201
194	0xbc833aa0	-0.016019166
195	0xbdb4d202	-0.08829118
196	0x3d3e418c	0.04644923
197	0x3a606ef8	0.00085614575
198	0xbd15e1b4	-0.0365922
199	0x3d5695cd	0.052388955
200	0x3d095022	0.033523686
201	0xbd862bb3	-0.06551304
202	0xbd5260c1	-0.051361803
203	0xbd145ebd	-0.036223162
204	0x3ceaf850	0.028682858
205	0xbc95d819	-0.01829152
206	0x3d395605	0.04524805
207	0xbcb3f40e	-0.02196696
208	0xbcf4dd5c	-0.029890709
209	0xbba1a9e6	-0.0049335836
210	0xbd8febbf	-0.07027387
211	0x3dac0b7a	0.084006265
212	0xbd946b49	-0.072470255
213	0xbc085fac	-0.008323591
214	0xbc8a0521	-0.016848149
215	0xbdb7ab47	-0.089682154
216	0xbd85cf8e	-0.065337285
217	0x3d8ff59e	0.0702927
218	0xbbd27061	-0.006422088
219	0xbd4163f0	-0.04721445
220	0xbd368658	-0.044561714
221	0xbbc81729	-0.0061062765
222	0xbd891b65	-0.06694678
223	0x3c7024d6	0.01465722
224	0x3d395f6d	0.04525702
225	0xbca195ad	-0.019724691
226	0xbc3fb121	-0.011699946
227	0xbd14e9e0	-0.036355853
228	0xbd871541	-0.06595851
229	0xbd2b1fff	-0.04177856
230	0xbd9a025d	-0.07519982
231	0xbd710f52	-0.0588525
232	0xbdb13498	-0.086526096
233	0x3d340038	0.04394552
234	0x3d38939b	0.045062643
235	0x3c56fcf2	0.01312183
236	0xbd52a615	-0.05142792
237	0xbda5c8d9	-0.08094949
238	0xbd67e846	-0.056617998
239	0xbdbea326	-0.09308462
240	0xbc65df2b	-0.014030258
241	0xba004dd1	-0.0004894408
242	0xbdb41350	-0.08792746
243	0xbc137797	-0.00900068
244	0xbd7a90f2	-0.061173387
245	0xbd96d946	-0.0736566
246	0xbd2beebd	-0.041975725
247	0xbc97be04	-0.018523224
248	0xbc060de0	-0.008182019
249	0x3d9cd02e	0.076568946
250	0x3d91f6e7	0.07127171
251	0x3b810429	0.0039372635
252	0xbd143a77	-0.03618857
253	0x3d01b9b7	0.031671252
254	0xbd88df47	-0.06683212
255	0xbc608839	-0.013704353

fc2.bias f4 [64]
0	0xbcafda34	-0.021466352
1	0xbd6bdccb	-0.05758361
2	0xbd00a2cb	-0.03140525
3	0xbb5d8d48	-0.0033806134
4	0xbcc77261	-0.024346532
5	0xbd5f973f	-0.0545876
6	0xbc92833d	-0.017884845
7	0x3e48cd0d	0.1960947
8	0xbdeed050	-0.11660826
9	0xbd6bf327	-0.057604935
10	0xbdd78273	-0.10522928
11	0xbe0b9334	-0.13630372
12	0xbd32a92a	-0.04361836
13	0x3dfd9728	0.123823464
14	0x3e8aa99c	0.27082527
15	0x3daf1fb6	0.0855097
16	0x3d484312	0.04889209
17	0x3ded9ee5	0.11602572
18	0x3dc79281	0.0974474
19	0x3da3c52e	0.079965934
20	0xbe000a47	-0.1250392
21	0xbce0fa5b	-0.027463129
22	0xbdaa446d	-0.083138324
23	0x3c029904	0.007971052
24	0xbd941d12	-0.07232107
25	0xbe212557	-0.157369
26	0x3d9eeb67	0.07759743
27	0xbd1531d8	-0.036424488
28	0xbdfffb8c	-0.12499151
29	0x3e800e42	0.25010878
30	0x3cfb47c5	0.03067387
31	0xbdbddaf7	-0.0927028
32	0xb9e1cd04	-0.00043068093
33	0xbdc223c5	-0.09479479
34	0x3e129ab5	0.14316829
35	0xbde252f4	-0.11050978
36	0xbdca221d	-0.09869788
37	0x3e4f4806	0.20242319
38	0xbdb50dd9	-0.08840532
39	0x3e4022ef	0.18763326
40	0xbda0066d	-0.078137256
41	0x3cab5dc5	0.020918736
42	0x3dec0b43	0.115255855
43	0x3e896c6f	0.2684054
44	0x3d7a7f61	0.061156634
45	0xbcaeedcd	-0.021353627
46	0xbdd0aba2	-0.10188986
47	0x3e48b8dc	0.19601768
48	0xbc45cb2c	-0.012072366
49	0x3d7eec1c	0.06223689
50	0xbcabca07	-0.020970358
51	0xbdde770d	-0.10862551
52	0x3d1b8a92	0.037973948
53	0xbd492d01	-0.049115185
54	0xbdad3160	-0.08456683
55	0xbe04b45d	-0.12959428
56	0x3d847bb6	0.064689085
57	0xbe01aa49	-0.12662615
58	0xbd8f6833	-0.07002296
59	0xbde8d0ba	-0.113679364
60	0xbd37fc7d	-0.044918526
61	0xbd770d1a	-0.06031523
62	0xbd12b4ba	-0.035816886
63	0x3e74dd53	0.23912553

fc3.weight f4 [10, 64]
0	0xbd2d85cf	-0.042363938
1	0xbc4732e4	-0.012158129
2	0xbcb8a586	-0.022539865
3	0xbd12055d	-0.035649646
4	0xbcd726e0	-0.026263654
5	0x3ca3dd27	0.020002915
6	0x3dc27158	0.09494275
7	0x3e1991a4	0.14996964
8	0x3d92c814	0.07167068
9	0xbc9ee97b	-0.019398442
10	0xbd0ddaab	-0.034632366
11	0xbd92b914	-0.07164207
12	0xbd07a6d7	-0.033118095
13	0x3c8568a9	0.016285257
14	0x3cf4ab2c	0.029866777
15	0x3d5dedb7	0.05418178
16	0x3d3ae375	0.045627076
17	0x3dc3e076	0.09564297
18	0x3c937f6e	0.0180051
19	0x3d329521	0.04359925
20	0xbd7f2e8a	-0.062300242
21	0x3cf70b67	0.030156804
22	0xbd0f0c89	-0.034924064
23	0x3cb6e77c	0.022327177
24	0xbe7a04f7	-0.24415956
25	0x3c7c7b8d	0.015410316
26	0x3dd0b8cf	0.101914994
27	0xbd47df14	-0.04879673
28	0x3de9bfe1	0.11413551
29	0x3dbd6347	0.09247451
30	0x3d02e863	0.031959902
31	0x3c70733c	0.0146759115
32	0x3da8f688	0.08250147
33	0xbdb72d34	-0.08944169
34	0xbca504d5	-0.020143906
35	0x3d0c5734	0.03426285
36	0xbd6635be	-0.056203596
37	0x3dac232c	0.08405146
38	0xbd9663d2	-0.07343258
39	0x3d624ecf	0.05525094
40	0xbd90823d	-0.07056091
41	0x3dbc9398	0.09207839
42	0x3d9bc1ae	0.07605301
43	0x3e05de92	0.13073185
44	0x3cb71970	0.022350997
45	0xbc40ab22	-0.011759551
46	0xbc632166	-0.013862943
47	0x3ddf5b0f	0.1090604
48	0x3da8144a	0.08206995
49	0x3d99c394	0.07508007
50	0x3e114a95	0.14188607
51	0xbcd74d1b	-0.026281884
52	0x3d0c6323	0.03427423
53	0xbd3ac9fe	-0.04560279
54	0xbd025c57	-0.031826343
55	0xbaae139c	-0.001328099
56	0x3dabe2a4	0.08392838
57	0xbda0310f	-0.07821857
58	0xbcb7c2a0	-0.022431672
59	0xbc06b3a4	-0.008221541
60	0x3c93d6e8	0.018046811
61	0xbd5605ac	-0.052251503
62	0xbd0a3243	-0.03373934
63	0x3db181c1	0.08667327
64	0xbd6a7cda	-0.057247974
65	0xbd27bb94	-0.040950373
66	0xbd9bec87	-0.076134734
67	0xbce84124	-0.028351374
68	0xbc519b44	-0.012793366
69	0x3bfb6568	0.0076720007
70	0x3d56fff9	0.05249021
71	0x3da4ad95	0.08040921
72	0x3dc8a964	0.09797934
73	0xbd0e03c2	-0.034671552
74	0xbd170b87	-0.036876228
75	0xbdd235a0	-0.102641344
76	0xbd40a433	-0.047031593
77	0x3c8f6e7e	0.017508741
78	0x3bf12446	0.0073590605
79	0x3e02a803	0.12759404
80	0x3ded9208	0.11600119
81	0xbd36eef8	-0.044661492
82	0x3d348930	0.044076145
83	0x3d188fcc	0.03724651
84	0x3ddb532f	0.107092254
85	0xbb8b827a	-0.0042574974
86	0xbd038f95	-0.032119352
87	0x3cc582f0	0.024110287
88	0xbdbd71df	-0.09250235
89	0xbd0607ca	-0.032722272
90	0x3c9597dd	0.01826089
91	0x3d9146dc	0.070935935
92	0x3d952629	0.07282669
93	0x3e186b70	0.14884734
94	0x3d7433cc	0.05961971
95	0x3d3991ed	0.04530518
96	0x3d9f6bee	0.07784258
97	0xbcf93285	-0.030419597
98	0x3d06c064	0.03289832
99	0x3dbaa3a8	0.09113246
100	0xbdc5e3df	-0.096626036
101	0x3dc12351	0.09430564
102	0xbd20fd0b	-0.03930382
103	0xbc975eac	-0.01847776
104	0xbd83e0ab	-0.064393364
105	0x3db7ed05	0.08980755
106	0xbd26ae5c	-0.040693626
107	0x3d5ca033	0.053863715
108	0x3d97283c	0.07380721
109	0x3e182bff	0.14860533
110	0xbcee3145	-0.029076228
111	0x3dfaa33e	0.12238167
112	0x3dbc6635	0.09199182
113	0x3dd01174	0.10159579
114	0x3d72d1f1	0.059282247
115	0xbd6407de	-0.055671565
116	0x3d3332b3	0.043749522
117	0xbd0224ee	-0.0317735
118	0xbda51284	-0.08060172
119	0xbc03e12f	-0.008049293
120	0x3df277f0	0.118392825
121	0xbccd9ecd	-0.025100136
122	0xbd42ba04	-0.04754068
123	0x3defc771	0.11707962
124	0x3de7d707	0.1132031
125	0x3c297111	0.010341899
126	0xbd953110	-0.072847486
127	0x3d1b330b	0.037890475
128	0xbc01b81b	-0.007917429
129	0xba9fd848	-0.0012195194
130	0xbc093167	-0.008373595
131	0xbccb4d48	-0.024817124
132	0xbd9b74a0	-0.07590604
133	0x3c7c7fa3	0.01541129
134	0x3da1ab67	0.078940205
135	0x3dfe8046	0.1242681
136	0xbd053188	-0.03251794
137	0x3d8b3877	0.06797879
138	0x3d51651f	0.051121827
139	0x3db35fb1	0.08758486
140	0xbd8bf583	-0.06833937
141	0xbcd8107b	-0.026375046
142	0x3d884eef	0.066556804
143	0x3d66cd27	0.056347992
144	0x3dda56f4	0.10661116
145	0x3cf5dc19	0.030012177
146	0x3d87cb0f	0.06630527
147	0x3c3581aa	0.011078278
148	0xbd20bbd2	-0.03924162
149	0x3d3f8a37	0.04676267
150	0xbdb94db2	-0.09048022
151	0x3c8f3a74	0.017483927
152	0xbd4ec624	-0.05048193
153	0x3c9c3b24	0.01907117
154	0xbcda4df6	-0.026648503
155	0xbc0c4771	-0.008561955
156	0x3b9c10d6	0.004762749
157	0x3cac3810	0.021022826
158	0x3d0b16c6	0.033957265
159	0xbd907a59	-0.07054586
160	0x3da1e4f5	0.07904998
161	0xbd2065c1	-0.03915954
162	0xbce90919	-0.02844672
163	0x3d92c815	0.07167069
164	0xbbbdec66	-0.005796003
165	0x3e39f040	0.18158054
166	0xbcfebb30	-0.031095117
167	0x3e34b0f4	0.17645627
168	0xbd8b524a	-0.06802805
169	0x3d959cc1	0.07305289
170	0x3e04a17b	0.12952225
171	0x3e0482a9	0.12940468
172	0x3d8a77ec	0.067611545
173	0x3d8bb053	0.068207406
174	0x3c212bad	0.009837073
175	0x3dbcaf05	0.0921307
176	0x3db01694	0.085980564
177	0x3dd2a1f6	0.10284798
178	0x3df3df29	0.11907799
179	0x3dae6141	0.085146435
180	0x3d2692d0	0.040667355
181	0x3dcf81a1	0.101321466
182	0x3e04a1c0	0.12952328
183	0x3db2ab3f	0.08724069
184	0x3dfb3ac0	0.12267065
185	0xbd879168	-0.06619531
186	0xbca2393d	-0.019802684
187	0x3da83dbf	0.08214902
188	0x3df2d8dd	0.1185777
189	0x3c598bf9	0.013278001
190	0xbd227995	-0.03966673
191	0xbd6f0a02	-0.058359154
192	0xbd935076	-0.07193081
193	0xbdb07874	-0.086167246
194	0xbdeca615	-0.11555115
195	0xbf532b0f	-0.8248758
196	0xbf6cb2d7	-0.9246039
197	0xbc2de21e	-0.010612993
198	0xbf92e72b	-1.1476797
199	0xc02b3595	-2.6751454
200	0xbea1d539	-0.31607988
201	0xbc289034	-0.010288287
202	0xbdbcc5a5	-0.09217385
203	0x3ce02ffc	0.02736663
204	0xbf62fb70	-0.88664913
205	0xc087d33c	-4.2445354
206	0xc0834257	-4.101848
207	0xc010fa1f	-2.2652662
208	0xbfdbaa49	-1.7161342
209	0xbff25c25	-1.893437
210	0xc042fbda	-3.0466218
211	0xc05744a9	-3.3635657
212	0x3d8f12d9	0.06986017
213	0xbff2d15b	-1.897014
214	0x3d34ad49	0.04411057
215	0xc02a3694	-2.6595812
216	0xbecf4594	-0.4048277
217	0xbdb953fe	-0.09049223
218	0xc05ac7c0	-3.4184418
219	0x3cb00876	0.02148841
220	0xbda9e550	-0.08295691
221	0xc0086186	-2.1309524
222	0xbf8a6e74	-1.0814958
223	0xbecd4ed3	-0.400992
224	0xbf8048f2	-1.0022261
225	0xbd9ed53a	-0.077555135
226	0xc0962e71	-4.693169
227	0xbcd0072b	-0.025394043
228	0xbe5de515	-0.21669419
229	0xc01aee2e	-2.4207873
230	0x3dcb1453	0.09915986
231	0xc04b057d	-3.17221
232	0xbe24527b	-0.16047089
233	0xbfd16ef9	-1.6361991
234	0xc0537669	-3.3041022
235	0xc04ffd45	-3.2498333
236	0xbfde8690	-1.7384815
237	0xbf333ee8	-0.7001786
238	0x3d337c20	0.043819547
239	0xc0084a11	-2.1295207
240	0xbf533152	-0.8249713
241	0xc008c8a7	-2.1372468
242	0xbf677db2	-0.9042617
243	0xbde371a4	-0.111056596
244	0xc0136c7b	-2.3034961
245	0xbf903c30	-1.1268368
246	0xbd667905	-0.056267757
247	0xbda5b45d	-0.08091042
248	0xbfe5489b	-1.7912782
249	0xbde19cde	-0.11016248
250	0xbe9e4f5b	-0.30919918
251	0xbd1be165	-0.03805675
252	0xbe8e5538	-0.27799392
253	0x3d22b323	0.03972162
254	0x3d247e06	0.040159248
255	0xc08dd11e	-4.431777

fc3.bias f4 [10]
0	0x3da7fbcd	0.08202324
1	0x3e08a612	0.13344601
2	0x3ddfcaf4	0.10927382
3	0xc0832f0c	-4.099493
4	0xc0806f5b	-4.013593
5	0xc07c6fe7	-3.94433
6	0xc0812f01	-4.036988
7	0xc07d07a8	-3.9535923
8	0xc0754e15	-3.8328907
9	0xc0862499	-4.1919675
